wave_model_updated.pth (torch, 203888 bytes, 9 tensors)

fc1.weight f4 [128, 2]
-0.26346445 -0.042460732 -0.36842498 -0.64464664 -0.06518128 -0.13711785 0.2952419 -0.1001763
0.08112619 0.14407395 0.4621597 -0.048710596 -0.43343437 -0.2376538 0.5682597 0.7117828
-0.63280076 0.26213428 0.47436026 -0.7245372 0.5734869 0.56044006 0.62302256 -0.18510914
-0.60981697 0.35843593 0.46775994 -0.106160946 0.2715855 0.2528038 -0.60902464 -0.5987042
-0.26690024 -0.040353406 0.4920563 -0.34911925 0.66718423 0.29774106 0.07809236 0.1875342
0.23771654 0.13441345 0.38118383 0.097513795 -0.57884103 -0.66248995 -0.34358853 -0.011471804
-0.4100637 0.5898152 0.18889447 0.06523106 0.07934269 -0.63661605 0.2650343 0.19232604
-0.07981063 0.5787914 0.6530514 -0.12883203 0.64450634 0.029586662 0.11469871 -0.5030311
0.5780252 0.22704044 -0.6118246 -0.0031590278 -0.056966938 0.21147227 0.29078373 -0.4148224
-0.15438381 -0.050083403 0.5877945 -0.33397433 -0.4677497 0.20731159 -0.12944934 -0.43280196
0.75926226 -0.17788261 0.6195574 -0.06419216 -0.28139436 -0.31112087 -0.02011373 -0.29406884
-0.049473584 0.2098479 -0.3617001 -0.5756874 -0.16174594 0.48576957 0.45142895 0.4628636
-0.15681243 0.14840437 0.15323158 -0.49349105 0.2132825 0.04862219 0.056878027 -0.7127102
0.44136298 -0.5556846 -0.6236983 -0.2747144 -0.4096659 -0.15423138 -0.5389909 -0.7038699
-0.463501 -0.30780318 -0.19004555 0.16906103 -0.5979078 0.5105764 0.49098498 -0.7159
0.34207353 -0.25360724 -0.4893554 0.6286778 0.31967413 0.2365247 0.36223578 0.30489144
-0.09000001 0.6910706 -0.43330798 0.41971415 -0.588289 0.57330406 -0.007939948 0.6482941
0.38428023 -0.26298112 0.044112355 0.4620143 0.5585053 0.17636982 0.6613698 -0.5744825
0.36066723 0.84314483 0.22091095 -0.049302015 0.12833242 -0.3432327 -0.17636561 0.2939947
-0.5493599 0.03709711 0.59130555 0.53118736 0.29851726 -0.28381288 0.19128715 0.4462319
-0.097754516 0.5900027 0.08198701 -0.3788001 0.37736082 0.24465418 0.42895037 0.7653293
0.37078768 -0.15086123 -0.6926375 -0.6769805 -0.02962822 -0.5201688 0.48136848 -0.36207727
-0.63731885 0.54154825 -0.26789954 0.27070242 0.29233545 -0.27589747 -0.083652854 0.34380448
0.048027672 0.08273735 -0.6628785 -0.69875073 0.54211307 -0.084162354 -0.30199286 -0.34031
0.66978824 -0.5230345 0.55342203 0.65286046 -0.19444922 0.66609585 0.71998197 0.4450413
0.41504994 -0.6603257 -0.13943703 0.23756027 -0.22949477 -0.09085882 0.4728054 0.72111034
-0.6549342 0.56797135 0.29265139 -0.64317435 -0.3646646 0.05462328 0.14006971 -0.32100013
0.20638727 -0.23812208 0.4205488 -0.047381956 -0.5560107 -0.61493903 -0.61230564 -0.2480475
0.39242646 -0.558427 0.2581759 0.18752666 0.2591435 -0.26019943 0.0898721 -0.27185297
0.10141991 -0.45661873 1.089849 0.015436552 -0.42441538 0.24512231 -0.5733733 0.33937845
0.26227075 -0.30711344 -0.31378284 -0.3508247 -0.3237394 -0.248909 0.41527063 0.31473744
0.058566574 0.41608855 -0.19783786 0.4343351 0.0062999483 -0.4392474 -0.21822773 0.13673908
00000000: d0e4 86be 4eeb 2dbd 33a2 bcbe 9007 25bf
00000010: c37d 85bd 9f68 0cbe f229 973e 3b29 cdbd
00000020: 7d25 a63d 1f88 133e 32a0 ec3e c384 47bd
00000030: 1ceb ddbe 855b 73be 7879 113f 6637 363f
00000040: 3bff 21bf 7736 863e 59df f23e 457b 39bf
00000050: 0ad0 123f 0079 0f3f 687e 1f3f 408d 3dbe
00000060: f71c 1cbf ea84 b73e 3b7e ef3e e96a d9bd
00000070: 410d 8b3e 806f 813e 0ae9 1bbf ae44 19bf
00000080: 26a7 88be 9d49 25bd ceee fb3e c2bf b2be
00000090: 96cc 2a3f 8471 983e e3ee 9f3d f708 403e
000000a0: f76b 733e aea3 093e 872a c33e 50b5 c73d
000000b0: ed2e 14bf f198 29bf d6ea afbe 3cf4 3bbc
000000c0: dff3 d1be 21fe 163f 8d6d 413e dd97 853d
000000d0: 6c7e a23d 45f9 22bf 93b2 873e 1ef1 443e
000000e0: c173 a3bd ac2b 143f 602e 273f 8bec 03be
000000f0: 5efe 243f ba5f f23c 28e7 ea3d a5c6 00bf
00000100: 76f9 133f 4a7d 683e 89a0 1cbf b107 4fbb
00000110: 2a56 69bd 308c 583e 9be1 943e 9a63 d4be
00000120: ca16 1ebe 4124 4dbd b379 163f affe aabe
00000130: e47c efbe 7d49 543e 5e8e 04be 3898 ddbe
00000140: 035f 423f dc26 36be 509b 1e3f 2e77 83bd
00000150: ec12 90be 3c4b 9fbe 8dc5 a4bc 3190 96be
00000160: d0a4 4abd 5ee2 563e c130 b9be 4060 13bf
00000170: baa0 25be cab6 f83e b221 e73e 75fc ec3e
00000180: 7093 20be 51f7 173e bde8 1c3e dcaa fcbe
00000190: ba66 5a3e 1028 473d eff8 683d 2d74 36bf
000001a0: 54fa e13e 5941 0ebf b1aa 1fbf 5ea7 8cbe
000001b0: bbbf d1be d5ee 1dbe 4ffb 09bf d130 34bf
000001c0: 0150 edbe 6198 9dbe 4d9b 42be 561e 2d3e
000001d0: 7c10 19bf 23b5 023f 6262 fb3e 3945 37bf
000001e0: 4324 af3e cfd8 81be ca8c fabe 07f1 203f
000001f0: 54ac a33e 8833 723e f876 b93e bb1a 9c3e
00000200: ed51 b8bd 01ea 303f 8bda ddbe c6e4 d63e
00000210: 1c9a 16bf 0ec4 123f 8e16 02bc 9af6 253f
00000220: 61c0 c43e 76a5 86be 28af 343d 238d ec3e
00000230: 34fa 0e3f 4a9a 343e 884f 293f 4911 13bf
00000240: 60a9 b83e 57d8 573f 7b36 623e e9f0 49bd
00000250: 9369 033e 32bc afbe 3099 34be 7986 963e
00000260: daa2 0cbf 24f3 173d cd5f 173f e5fb 073f
00000270: 41d7 983e ec4f 91be c7e0 433e 8278 e43e
00000280: 8533 c8bd 6b0a 173f cee8 a73d 16f2 c1be
00000290: 7035 c13e a086 7a3e 629f db3e 9fec 433f
000002a0: e2d7 bd3e 5e7b 1abe b150 31bf 984e 2dbf
000002b0: e1b6 f2bc c829 05bf ee75 f63e 3162 b9be
000002c0: 5427 23bf e8a2 0a3f 212a 89be 8299 8a3e
000002d0: feac 953e 6f42 8dbe 3052 abbd 2407 b03e
000002e0: aab8 443d 3372 a93d 68b2 29bf 54e1 32bf
000002f0: ecc7 0a3f 505d acbd cf9e 9abe 1d3d aebe
00000300: 3e77 2b3f 97e5 05bf 11ad 0d3f dd21 273f
00000310: b21d 47be 4285 2a3f bd50 383f 74dc e33e
00000320: 6d81 d43e 1b0b 29bf 95c8 0ebe 0043 733e
00000330: ad00 6bbe 3014 babd 8d13 f23e b09a 383f
00000340: c5a9 27bf 9266 113f 67d6 953e 13a7 24bf
00000350: 52b5 babe a9bc 5f3d 6f6e 0f3e 215a a4be
00000360: 2f57 533e 46d6 73be 2c52 d73e 9513 42bd
00000370: b856 0ebf a56c 1dbf 10c0 1cbf 2a00 7ebe
00000380: 1fec c83e 12f5 0ebf a22f 843e fd06 403e
00000390: 75ae 843e dc38 85be dd0e b83d 5030 8bbe
000003a0: 3eb5 cf3d eec9 e9be 2c80 8b3f 98e9 7c3c
000003b0: f94c d9be 5801 7b3e 98c8 12bf 03c3 ad3e
000003c0: 5a48 863e f93d 9dbe 25a8 a0be 4c9f b3be
000003d0: 2cc1 a5be 00e2 7ebe 5a9e d43e 4425 a13e
000003e0: 81e3 6f3d 8f09 d53e 0296 4abe 2c61 de3e
000003f0: cc6f ce3b 09e5 e0be 1777 5fbe 5405 0c3e

fc1.bias f4 [128]
0.45058137 -0.31217408 0.15602116 0.14773932 -0.36136234 -0.4923021 0.5580791 -0.5079991
0.62758535 -0.6669138 -0.30521673 -0.24243563 -0.87771505 0.6241015 -0.12299385 0.33380818
0.5419707 0.41345245 -0.72091186 0.57846415 0.50632095 0.6453771 0.06702164 0.32666934
-0.5649084 0.17927337 0.6505786 0.021920994 0.4579804 0.063587874 -0.028050734 0.16196764
-0.13683622 -0.5152153 -0.58096486 -0.18831277 -0.6861347 0.6834145 0.37618557 0.53431374
0.53272724 -0.6218132 0.44420037 -0.4154021 -0.67359024 0.09330461 0.558942 -0.75925046
-0.15292183 0.34512135 0.70520186 0.5715056 0.6849157 0.37580326 -0.63482225 -0.67606574
0.7698976 0.016718598 0.030153846 -0.58356476 0.21776193 0.72551477 -0.14474584 -0.72060215
0.62947726 -0.22579174 -0.22662634 -0.43448398 0.105775796 0.3054768 0.48617277 0.14903748
0.2108489 0.50715494 -0.30485812 0.32530716 -0.31043515 0.17074378 0.38677895 0.70364213
0.21606728 0.41962668 0.041459035 -0.3643427 -0.55041957 -0.3108459 -0.46673033 -0.5141934
0.38277107 -0.60907996 0.0615871 -0.71870303 0.44404984 0.65731066 0.7197857 0.7710721
-0.28310928 -0.1517554 -0.48694775 -0.21229208 0.12801087 0.5045844 0.6593186 0.5915177
-0.29447663 0.2539302 -0.28316584 -0.36551985 -0.5046862 0.33246756 0.15932485 0.41796392
-0.6008443 0.4043854 0.7009392 -0.40020892 0.03364869 0.68914133 -0.19818978 -0.5927124
-0.64880687 0.4285231 0.4686799 -0.17994782 -0.26596987 0.022862777 0.21209194 0.6700986
00000000: 9ab2 e63e 48d5 9fbe 03c4 1f3e fa48 173e
00000010: 7c04 b9be 050f fcbe 46de 0e3f 3b0c 02bf
00000020: 6fa9 203f ddba 2abf 5e45 9cbe 0c41 78be
00000030: efb1 60bf 1ec5 1f3f 33e4 fbbd e8e8 aa3e
00000040: 97be 0a3f 0ab0 d33e ae8d 38bf 3a16 143f
00000050: 409e 013f 6f37 253f a442 893d 3441 a73e
00000060: d69d 10bf 7093 373e 528c 263f a893 b33c
00000070: 687c ea3e 5c3a 823d a7ca e5bc d8da 253e
00000080: cb1e 0cbe 26e5 03bf 1dba 14bf 10d5 40be
00000090: 86a6 2fbf 41f4 2e3f 659b c03e c9c8 083f
000000a0: d060 083f 262f 1fbf 3b6e e33e 96af d4be
000000b0: 6970 2cbf 7d16 bf3d d316 0f3f 3d5e 42bf
000000c0: 8a97 1cbe bfb3 b03e 1c88 343f 314e 123f
000000d0: a356 2f3f 4969 c03e b683 22bf a512 2dbf
000000e0: 0218 453f 71f5 883c 3305 f73c 8064 15bf
000000f0: fcfc 5e3e 56bb 393f 4138 14be 6279 38bf
00000100: 6c25 213f f335 67be bc10 68be af74 debe
00000110: fba0 d83d 7567 9c3e a3eb f83e 489d 183e
00000120: c6e8 573e e8d4 013f 5d16 9cbe a98e a63e
00000130: 5bf1 9ebe 75d7 2e3e e407 c63e e421 343f
00000140: be40 5d3e 4fd9 d63e f3d0 293d 208b babe
00000150: 4ce8 0cbf 3227 9fbe 47f7 eebe 2ea2 03bf
00000160: 92fa c33e aaec 1bbf c142 7c3d ecfc 37bf
00000170: 805a e33e 8345 283f e043 383f fb64 453f
00000180: b3f3 90be c465 1bbe 3751 f9be 1863 59be
00000190: 4815 033e 712c 013f 1bc9 283f b46d 173f
000001a0: a4c5 96be 2403 823e 1dfb 90be 6b25 bbbe
000001b0: 1d33 01bf 3039 aa3e 0e26 233e 5eff d53e
000001c0: efd0 19bf 9a0b cf3e c070 333f 2fe8 ccbe
000001d0: 35d3 093d 916b 303f 43f2 4abe 00bc 17bf
000001e0: 3518 26bf 6167 db3e d0f6 ef3e 3e44 38be
000001f0: 342d 88be b84a bb3c a12e 593e 958b 2b3f

fc2.weight f4 [128, 128]
-0.11827909 0.069580115 -0.08156104 0.0006834124 0.087304324 -0.036592536 -0.040555775 -0.022397479
-0.0682559 -0.051694915 0.041940432 -0.0037996108 -0.0779052 0.0370677 -0.050223805 0.06605762
-0.080096334 0.027093465 0.044299472 -0.026211677 0.033148367 -0.048607714 -0.060479656 -0.034401275
-0.014137702 0.052983608 0.068316154 0.0038855406 0.06788079 -0.08181425 0.0030082166 -0.02106362
-0.06926233 0.08230055 0.0402057 -0.05803882 0.018804763 0.010313397 -0.093747094 -0.05966942
0.0558032 -0.074009754 -0.041638315 0.015966784 0.06501648 0.06339918 -0.012460311 -0.031064106
0.033480387 0.035089675 7.76549e-06 0.015415342 -0.023227056 0.04326512 0.045869462 0.04798042
0.09786231 0.09019999 0.06032337 0.0443469 -0.04863428 0.020405145 0.04926392 -0.075794786
0.06396133 -0.019444443 -0.026475804 -0.01303297 -0.012400817 0.0018480176 0.040009864 0.00875725
0.06803404 0.06218061 0.06997154 0.021168828 -0.025220796 0.03686729 -0.050436903 0.034030043
0.0016510178 0.07714596 0.0033546712 -0.020037223 0.011683625 -0.010787287 -0.030829111 0.03628647
0.07358815 -0.0015914763 0.08846056 0.02166246 0.007400719 0.063746035 0.053072624 -0.01797684
0.041746255 -0.065851636 -0.012903107 0.0004604905 -0.05016315 0.07994286 0.019930756 0.045640502
0.0034113955 -0.0065445923 -0.08467848 0.03492691 -0.07211902 -0.0065442473 -0.012821344 0.004390242
-0.06947588 -0.038717505 -0.05308037 0.054746903 0.044918664 -0.04581546 -0.01899113 -0.06569331
-0.023920009 0.070483275 -0.0060565616 -0.0823183 0.0022439153 0.040820405 0.04410013 0.02993712
-0.024294691 -0.0640703 -0.115293294 -0.050599497 -0.0062329853 0.0847314 0.043657556 0.04129402
0.054460004 -0.07266295 0.090293676 0.08338587 -0.052268673 -0.01429657 -0.04658111 -0.04045335
-0.17890449 -0.074575216 -0.04807758 -0.017664287 0.0046805497 -0.03372936 -0.037749283 0.042069525
-0.09006545 0.02802921 0.008889685 0.06110906 -0.04880315 -0.060073193 -0.08586405 0.024959559
-0.006981451 -0.051525746 0.014820821 0.0005565138 -0.040784407 -0.052815113 -0.039568838 0.05169508
-0.11259823 0.03997842 -0.029549785 -0.0056234295 0.08093367 -0.06621004 0.018046279 -0.035564594
0.0029470236 0.013438767 0.05940896 0.037081473 -0.04391533 -0.023489378 0.06950646 -0.0352692
0.008821475 0.10139924 -0.060077004 -0.06382582 0.03016608 -0.028306926 0.00056772516 -0.0021322302
0.00044976312 -0.083589286 -0.007909199 0.08419811 0.049369 -0.08272975 -0.09066274 0.04394119
-0.08605902 0.058804292 -0.014985028 -0.05915981 -0.022884086 -0.08110613 -0.0534271 -0.0044929204
-0.005046871 -0.020951986 -0.013269429 0.03854561 -0.0150188245 0.06026116 0.08128167 0.005849679
-0.021462122 0.09969382 0.03635722 -0.04454459 0.08143975 -0.06991011 0.020713653 -0.057601042
0.023974676 -0.027864937 0.048702247 -0.031701926 -0.008862479 0.08192945 -0.062454715 0.036395
-0.07898763 0.00960913 0.027972553 -0.049909893 -0.04306591 0.047128517 -0.0039940546 0.026569808
0.051145427 0.059195846 -0.05937054 -0.031019514 0.08250824 -0.042876758 0.033353705 0.07190274
-0.036657333 -0.041491862 -0.025688313 0.086654775 0.083962314 -0.08008047 0.009131639 0.060371105
00000000: 4f3c f2bd 0580 8e3d 7909 a7bd 0827 333a
00000010: 9ccc b23d 0ee2 15bd d01d 26bd eb7a b7bc
00000020: c0c9 8bbd 0cbe 53bd bbc9 2b3d e402 79bb
00000030: c38c 9fbd 4dd4 173d 7ab7 4dbd 3849 873d
00000040: 8c09 a4bd 1df3 dd3c 5d73 353d dfb9 d6bc
00000050: 95c6 073d e218 47bd 84b9 77bd 5ae8 0cbd
00000060: d2a1 67bc 5705 593d 57e9 8b3d 8ea4 7e3b
00000070: 1505 8b3d 3b8e a7bd 8025 453b 9d8d acbc
00000080: 69d9 8dbd 318d a83d bbae 243d 1dba 6dbd
00000090: 720c 9a3c 86f9 283c 7afe bfbd ec67 74bd
000000a0: e591 643d 6d92 97bd f08c 2abd c6cc 823c
000000b0: 5c27 853d 6ed7 813d 5526 4cbc 277a febc
000000c0: bb22 093d 31ba 0f3d 8748 0237 a190 7c3c
000000d0: ab46 bebc c436 313d 9ee1 3b3d 1e87 443d
000000e0: 096c c83d c6ba b83d a315 773d 18a5 353d
000000f0: bd34 47bd b128 a73c f7c8 493d 4c3a 9bbd
00000100: 28fe 823d f449 9fbc c9e3 d8bc 3d88 55bc
00000110: cc2c 4bbc 2e39 f23a 62e1 233d 927a 0f3c
00000120: 6e55 8b3d 18b1 7e3d 3d4d 8f3d 406a ad3c
00000130: d89b cebc 2802 173d ed96 4ebd 1663 0b3d
00000140: f766 d83a b3fe 9d3d 0bda 5b3b 1a25 a4bc
00000150: ad6c 3f3c 29bd 30bc 558d fcbc 1fa1 143d
00000160: 62b5 963d 1599 d0ba cf2a b53d 7975 b13c
00000170: bb81 f23b 488d 823d ae62 593d 2a44 93bc
00000180: 1ffe 2a3d 39dd 86bd 8e67 53bc fd6d f139
00000190: e077 4dbd 15b9 a33d d345 a33c 89f1 3a3d
000001a0: b891 5f3b 0574 d6bb e96b adbd 850f 0f3d
000001b0: 23b3 93bd 2071 d6bb 9d10 52bc 05dc 8f3b
000001c0: 5f49 8ebd 3f96 1ebd cd6a 59bd 4a3e 603d
000001d0: a2fc 373d fea8 3bbd 4993 9bbc 378a 86bd
000001e0: e5f3 c3bc 8959 903d 1f76 c6bb 7f96 a8bd
000001f0: a70e 133b 4c33 273d 57a2 343d b13e f53c
00000200: a905 c7bc 4a37 83bd e41e ecbd 6b41 4fbd
00000210: 123e ccbb a887 ad3d 44d2 323d eb23 293d
00000220: 7411 5f3d 50d0 94bd e4eb b83d 36c6 aa3d
00000230: ad17 56bd 293c 6abc d6cb 3ebd 69b2 25bd
00000240: bd32 37be e4ba 98bd ffec 44bd b2b4 90bc
00000250: 4c5f 993b cc27 0abd fe9e 1abd 1851 2c3d
00000260: 3c74 b8bd 849d e53c 0ba6 113c 7e4d 7a3d
00000270: d0e5 47bd 4f0f 76bd 7ed9 afbd fd77 cc3c
00000280: a8c4 e4bb a90c 53bd 07d3 723c 02e3 113a
00000290: 8d0d 27bd a954 58bd ef12 22bd 38be 533d
000002a0: e799 e6bd 69c0 233d 6412 f2bc bf44 b8bb
000002b0: 8dc0 a53d 2199 87bd cad5 933c 2eac 11bd
000002c0: da22 413b 462e 5c3c cf56 733d bee2 173d
000002d0: 90e0 33bd cc6c c0bc 6759 8e3d 7076 10bd
000002e0: f387 103c 68aa cf3d 4e13 76bd 1db7 82bd
000002f0: db1e f73c ede3 e7bc 64d3 143a e3bc 0bbb
00000300: 2fce eb39 dc30 abbd 9695 01bc 0f70 ac3d
00000310: 2637 4a3d 376e a9bd 63ad b9bd adfb 333d
00000320: b63f b0bd c5dc 703d c383 75bc 8f51 72bd
00000330: 6877 bbbc f81a a6bd 60d6 5abd 5939 93bb
00000340: 3960 a5bb 80a3 abbc 0568 59bc 00e2 1d3d
00000350: 8411 76bc 68d4 763d 0177 a63d aaae bf3b
00000360: 55d1 afbc 462c cc3d 4feb 143d 6374 36bd
00000370: e2c9 a63d 082d 8fbd aeaf a93c 12ef 6bbd
00000380: 8a66 c43c 0245 e4bc 027c 473d e1d9 01bd
00000390: ee33 11bc a1ca a73d 84d0 7fbd ec12 153d
000003a0: 44c4 a1bd 9d6f 1d3c b226 e53c 516e 4cbd
000003b0: e165 30bd d509 413d 8fe0 82bb eda8 d93c
000003c0: de7d 513d 5877 723d 862e 73bd a31c febc
000003d0: 15fa a83d 8a9f 2fbd e59d 083d be41 933d
000003e0: 0026 16bd 5ff3 29bd 4c70 d2bc 0f78 b13d
000003f0: 6ff4 ab3d 3b01 a4bd df9c 153c b147 773d

fc2.bias f4 [128]
0.0038373128 -0.010757042 0.04491121 -0.030375717 0.042200625 0.019944053 -0.061934266 0.05637193
-0.06790958 -0.004774755 0.059556074 0.075561605 0.05435714 0.0089033125 0.03241105 -0.061024927
0.07635305 0.080243364 0.024815915 -0.020274581 0.06636121 -0.09176152 -0.05458817 0.08707919
-0.0154291885 0.05943971 -0.006262581 -0.07919587 -0.0538563 0.07680705 -0.01619544 0.017326226
-0.079260625 -0.039758448 0.061728697 -0.09020665 0.07813883 0.0019936562 0.013957044 0.051756818
0.07681827 0.05701024 0.009990247 0.005405672 0.016585147 -0.08427903 0.073642395 -0.08347436
-0.08701116 -0.09800031 0.041118957 -0.052378222 0.053825054 0.008634892 -0.004949819 0.14459775
-0.08928116 -0.08649147 -0.016898248 -0.04784155 -0.08750651 -0.09619628 0.014054851 -0.06362612
0.03525113 -0.043806802 0.007610997 -0.056296278 0.06872013 -0.04231417 0.045334682 -0.002489462
-0.045645487 0.0026978815 -0.061362967 -0.052669816 -0.09133274 0.06893356 0.07311117 0.07566897
-0.022840718 -0.0066575874 0.057751264 -0.03928771 -0.034357022 0.028077083 -0.052580513 0.031590614
-0.046735566 0.082092956 0.05410088 -0.025834417 -0.012674574 0.08901696 0.024262179 -0.074739635
-0.05455205 0.059710894 -0.07696075 -0.011569248 0.029392565 -0.0261943 0.046211693 -0.078975245
-0.06941296 -0.08095508 -0.04149313 -0.033835262 0.02551849 -0.08302073 0.027501289 -0.025043173
0.014525689 0.090292245 -0.024577862 -0.057423122 -0.07674967 0.012546708 0.0451387 0.020167483
-0.06775286 0.039858 -0.08889382 -0.07913591 -0.03639159 -0.0168187 -0.05128013 0.027703807
00000000: 6d7b 7b3b 4e3e 30bc d1f4 373d 7fd6 f8bc
00000010: 90da 2c3d b661 a33c c9ae 7dbd 41e6 663d
00000020: 2e14 8bbd 8c75 9cbb 12f1 733d 0bc0 9a3d
00000030: 98a5 5e3d 33df 113c 73c1 043d 46f5 79bd
00000040: fd5e 9c3d a256 a43d bf4a cb3c e116 a6bc
00000050: 63e8 873d 77ed bbbd d897 5fbd 9356 b23d
00000060: b5ca 7cbc 0e77 733d 5636 cdbb 7231 a2bd
00000070: 6c98 5cbd 044d 9d3d 4dac 84bc bbef 8d3c
00000080: 6553 a2bd c1d9 22bd 3bd7 7c3d 44be b8bd
00000090: 4007 a03d 00a8 023b 16ac 643c f5fe 533d
000000a0: e652 9d3d 9283 693d 22ae 233c 1022 b13b
000000b0: 93dd 873c 7c9a acbd d3d1 963d 9bf4 aabd
000000c0: e832 b2bd 63b4 c8bd 5a6c 283d 8c8a 56bd
000000d0: a977 5c3d 5d79 0d3c 1732 a2bb 6f11 143e
000000e0: 0ad9 b6bd 7122 b1bd 326e 8abc 80f5 43bd
000000f0: 9d36 b3bd 8e02 c5bd 5146 663c 694e 82bd
00000100: 7d63 103d c36e 33bd ac65 f93b ed96 66bd
00000110: 24bd 8c3d a051 2dbd dcb0 393d 3e26 23bb
00000120: c3f6 3abd f1ce 303b bc57 7bbd 4ebc 57bd
00000130: a90c bbbd 0a2d 8d3d 4fbb 953d 55f8 9a3d
00000140: 751c bbbc e427 dabb 978c 6c3d 26ec 20bd
00000150: f3b9 0cbd e901 e63c aa5e 57bd 2965 013d
00000160: cb6d 3fbd 5a20 a83d e298 5d3d b3a2 d3bc
00000170: 04a9 4fbc 864e b63d 7ac1 c63c 1811 99bd
00000180: f871 5fbd 6993 743d 999d 9dbd f18c 3dbc
00000190: adc8 f03c 6e95 d6bc 7948 3d3d c6bd a1bd
000001a0: 6228 8ebd c7cb a5bd b3f4 29bd d896 0abd
000001b0: 270c d13c c606 aabd 624a e13c 5727 cdbc
000001c0: 28fd 6d3c 24eb b83d 8357 c9bc 8234 6bbd
000001d0: ee2e 9dbd b590 4d3c 5ce3 383d 4736 a53c
000001e0: 03c2 8abd 2442 233d f70d b6bd 0212 a2bd
000001f0: 590f 15bd 5fc7 89bc 1d0b 52bd 18f3 e23c

fc3.weight f4 [128, 128]
-0.008703838 0.042560134 -0.049241282 -0.039611094 0.074218296 0.009550614 0.05016919 -0.08377689
-0.04323103 -0.050686914 -0.025838295 -0.019057784 0.07002836 0.022313505 0.014501764 0.029286604
0.043650903 0.04283497 0.1477298 0.054923527 0.020996545 0.08276199 0.0670178 0.062942706
-0.03878395 0.0022815547 0.010923649 0.052850135 -0.040119335 -0.006068248 0.037305027 -0.07852155
-0.074663006 0.070144184 -0.11651637 -0.07762534 -0.039486982 -0.053668384 -0.012759435 0.041845348
0.070241764 0.021963106 0.03745018 0.06544293 0.05909777 -0.034955274 -0.0089293765 -0.04240671
-0.010919739 0.048498817 0.052837677 0.04514872 0.008827871 0.07139603 -0.049251355 0.10182781
-0.10497369 0.04334772 0.03898776 -0.041764647 -0.09214797 -0.09396521 0.074820735 0.041713394
0.0718859 -0.0077232667 -0.07011244 -0.009737745 0.08124566 0.06087318 0.027522601 -0.039241303
0.05555053 0.06960081 -0.07623068 -0.0019391855 -0.05675888 -0.01950366 0.07225888 -0.012784798
-0.046601087 0.027775645 0.055745974 -0.014856631 0.026149075 -0.058907717 -0.0999869 0.067145586
0.057967722 0.10112895 -0.08099568 -0.039849784 -0.06179324 0.028328074 0.027505284 0.0556523
0.05242515 -0.028205259 0.031325735 0.029826717 -0.04441951 -0.062151454 -0.036480132 0.06139751
0.013738307 -0.050351202 -0.06207061 -0.01193977 -0.038297202 0.058442038 -0.032438483 0.056183357
-0.05549678 0.029276494 -0.032566324 0.0666433 -0.043486595 0.03048513 0.04109514 0.06092118
-0.049215827 0.012635744 0.011480728 0.08062239 0.005471133 0.035022143 -0.019895284 0.02275914
-0.054408092 -0.014563687 0.051542576 -0.088830054 -0.085596666 0.047011934 0.08069544 0.030124692
-0.049054958 -0.02708006 0.08099941 -0.03924999 0.014865657 -0.07906974 -0.00075954763 0.0021582744
-0.017585874 0.033484485 -0.06310419 0.022548366 -0.07704999 0.025481153 -0.03698821 -0.01871154
0.025357328 0.06762378 -0.039997496 0.035301358 0.04339271 -0.045510158 0.0091266995 0.14431448
-0.011104695 -0.035923 -0.027482625 -0.046805855 0.056888554 0.040563833 0.049200032 -0.011461361
0.06423671 -0.06532554 -0.054146335 -0.027990798 -0.055519383 -0.06688366 -0.07898617 0.006476016
0.034657665 -0.045498 0.03496003 -0.04945245 -0.08276802 -0.05595664 0.08083172 -0.10870953
-0.072926715 0.049346678 0.03610326 -0.024375768 -0.02766898 0.054064795 -0.02222442 -0.012956258
-0.044637702 0.029764596 -0.057045095 0.06965492 0.004916374 0.038594462 -0.05805667 0.066437915
-0.05401539 -0.017632829 0.049349938 -0.068826236 0.081111155 0.013083679 -0.10020335 0.025085062
-0.022834117 -0.0021228243 -0.10873096 0.079675406 -0.015300786 0.087101154 0.0043534758 -0.041649528
-0.042748697 -0.11352032 -0.067805015 -0.008786744 0.07384539 0.00040970088 0.056723904 0.081040554
0.070893556 0.09257093 0.10760714 -0.0366809 -0.016157562 0.11677093 0.032119088 -0.0715291
-0.052807253 -0.06900356 0.06562641 -0.038350143 0.032708924 -0.07234265 -0.025477692 0.020777505
-0.06533599 -0.07168541 -0.008515141 -0.01666577 -0.017983943 0.007165127 -0.07367289 -0.059917644
-0.028726287 -0.06487599 0.10272933 -0.021208288 -0.027045889 -0.09828049 0.0668391 0.019975208
00000000: 8b9a 0ebc 8953 2e3d 3ab1 49bd 3e3f 22bd
00000010: c3ff 973d 2e7a 1c3c 357e 4d3d 3893 abbd
00000020: 0513 31bd 159d 4fbd d5aa d3bc 121f 9cbc
00000030: 076b 8f3d d0ca b63c cf98 6d3c 76ea ef3c
00000040: 4acb 323d b973 2f3d 7b46 173e 7ef7 603d
00000050: f200 ac3c 1e7f a93d a140 893d 1be8 803d
00000060: ebdb 1ebd 2386 153b 1bf9 323c 6279 583d
00000070: 2c54 24bd 27d8 c6bb 28cd 183d e8cf a0bd
00000080: ebe8 98bd c1a7 8f3d 22a0 eebd 09fa 9ebd
00000090: 1abd 21bd 61d3 5bbd f30c 51bc 0766 2b3d
000000a0: eada 8f3d f9eb b33c 5c65 193d f106 863d
000000b0: 8110 723d 432d 0fbd 854c 12bc a9b2 2dbd
000000c0: b4e8 32bc b2a6 463d 526c 583d dded 383d
000000d0: c6a2 103c 1538 923d cabb 49bd 198b d03d
000000e0: 72fc d6bd 618d 313d a1b1 1f3d 6811 2bbd
000000f0: 13b8 bcbd d570 c0bd 9d3b 993d aadb 2a3d
00000100: ea38 933d 7513 fdbb 1c97 8fbd 108b 1fbc
00000110: 2064 a63d 2856 793d 1477 e13c 7dbb 20bd
00000120: f488 633d df8a 8e3d d51e 9cbd 452c feba
00000130: 007c 68bd 24c6 9fbc 77fc 933d 5477 51bc
00000140: c8e0 3ebd c089 e33c e455 643d 3a69 73bc
00000150: 9636 d63c 3849 71bd efc5 ccbd a083 893d
00000160: 906f 6d3d b21c cf3d 10e1 a5bd 8739 23bd
00000170: e91a 7dbd 4710 e83c c352 e13c abf3 633d
00000180: c1bb 563d b70e e7bc 6a4f 003d 2957 f43c
00000190: 3bf1 35bd 8692 7ebd 316c 15bd f57b 7b3d
000001a0: a316 613c 103d 4ebd c03d 7ebd 069f 43bc
000001b0: 87dd 1cbd eb60 6f3d 37de 04bd 8520 663d
000001c0: 9750 63bd 42d5 ef3c 4464 05bd 487c 883d
000001d0: 001f 32bd f4bb f93c 6153 283d 7d88 793d
000001e0: 8996 49bd 2706 4f3c aa19 3c3c 5a1d a53d
000001f0: 3147 b33b 6173 0f3d 6ffb a2bc 6071 ba3c
00000200: 05db 5ebd 889c 6ebc 4f1e 533d 88ec b5bd
00000210: 4e4d afbd 968f 403d a743 a53d 0fc8 f63c
00000220: daed 48bd 01d7 ddbc 05e3 a53d 99c4 20bd
00000230: 168f 733c 51ef a1bd 611c 47ba d671 0d3b
00000240: 4010 90bc 0727 093d c53c 81bd 5ab7 b83c
00000250: 63cc 9dbd dabd d03c f380 17bd f248 99bc
00000260: 2cba cf3c 567e 8a3d 6ad4 23bd 2898 103d
00000270: 8ebc 313d dc68 3abd 2788 153c 2dc7 133e
00000280: 77f0 35bc ff23 13bd 3e23 e1bc 7fb7 3fbd
00000290: f903 693d 4326 263d f985 493d 6fc8 3bbc
000002a0: 898e 833d 66c9 85bd 8cc8 5dbd f54c e5bc
000002b0: 4b68 63bd 4dfa 88bd 80c3 a1bd c234 d43b
000002c0: 32f5 0d3d 1c5c 3abd 4032 0f3d a78e 4abd
000002d0: 4882 a9bd ca32 65bd 1a8b a53d 1aa3 debd
000002e0: 9a5a 95bd be1f 4a3d 03e1 133d b1af c7bc
000002f0: 0faa e2bc 0c73 5d3d fd0f b6bc 7c46 54bc
00000300: 06d6 36bd e2d4 f33c 1ea8 69bd 3da7 8e3d
00000310: 8919 a13b 3a15 1e3d d5cc 6dbd 9a10 883d
00000320: 3e3f 5dbd b972 90bc 2923 4a3d c5f4 8cbd
00000330: 9b1d a63d ed5c 563c 6a37 cdbd 307f cd3c
00000340: 9d0e bbbc 151f 0bbb 56ae debd dc2c a33d
00000350: 26b0 7abc 1762 b23d 9aa7 8e3b b298 2abd
00000360: 4219 2fbd 577d e8bd 5bdd 8abd 47f6 0fbc
00000370: 403c 973d 1fcd d639 5357 683d 97f8 a53d
00000380: a430 913d d495 bd3d 2261 dc3d b63e 16bd
00000390: dd5c 84bc 9925 ef3d 4e8f 033d d97d 92bd
000003a0: 6b4c 58bd bd51 8dbd 2467 863d 0a15 1dbd
000003b0: cbf9 053d 6228 94bd 98b6 d0bc 9635 aa3c
000003c0: e0ce 85bd cdcf 92bd 1783 0bbc a786 88bc
000003d0: 1053 93bc 71c9 ea3b d0e1 96bd 346c 75bd
000003e0: 6453 ebbc b4dd 84bd c163 d23d 01bd adbc
000003f0: 578f ddbc 4847 c9bd f0e2 883d 0ca3 a33c

fc3.bias f4 [128]
-0.011695881 -0.018977493 -0.05041326 0.06949229 -0.023149783 0.048915867 -0.047377363 -0.020885358
0.010795798 -0.052603018 -0.007804625 -0.05234879 0.049528103 -0.08044601 -0.017934373 0.047128923
0.047244124 -0.027211195 -0.019684281 -0.049547527 0.04374572 0.037828334 -0.023233164 0.015044566
0.065707415 0.023070944 -0.035695992 0.06187779 0.010755989 -0.008944504 0.03865429 -0.08571744
0.03613216 -0.06457591 0.07411243 0.011539593 0.04761939 -0.0022335683 -0.046651423 -0.056768052
0.011785008 -0.0037721097 -0.07354215 -0.068829454 0.03958158 0.026505742 0.050901033 -0.015198018
0.05587339 0.0579626 0.0020265053 0.024788639 0.034160417 0.009723401 -0.08632771 0.021132408
0.0023738516 0.046552397 0.0065655843 -0.009920724 -0.039501827 -0.095949106 0.026671605 -0.06542176
0.048197955 0.09222843 -0.086382955 0.045643564 0.08022488 -0.061874866 0.097594164 0.05251029
-0.022377836 0.06869285 0.024480652 -0.07860859 0.0034348157 -0.041506592 -0.04701085 0.07662569
0.009807263 0.04015943 -0.014963696 -0.032598127 0.017442554 0.05176445 0.005230288 -0.066632986
0.036570713 -0.048677385 -0.01827214 3.568669e-05 -0.048032597 -0.06381842 0.008710994 0.021835543
-0.050208125 0.036509026 -0.0469773 -0.027086504 -0.053864203 0.01842064 -0.08291919 0.02479688
-0.04734536 -0.0025143097 -0.0013560728 0.07308974 0.023279916 -0.03899605 -0.063006386 -0.06935032
0.054624658 0.006379517 -0.055142805 -0.005182334 0.0050818287 0.097868666 0.053631723 0.080316685
-0.036251176 0.07648484 0.03622926 -0.048019625 0.048238017 0.054548077 -0.033998452 0.06568435
00000000: 15a0 3fbc b076 9bbc 227e 4ebd f951 8e3d
00000010: 9da4 bdbc 015c 483d c40e 42bd c517 abbc
00000020: dce0 303c 4376 57bd f1bd ffbb af6b 56bd
00000030: fbdd 4a3d e1c0 a4bd 1beb 92bc 420a 413d
00000040: 0e83 413d 03ea debc ee40 a1bc 59f2 4abd
00000050: b62e 333d e2f1 1a3d 7a53 bebc 7c7d 763c
00000060: 9c91 863d 47ff bc3c f635 12bd 9173 7d3d
00000070: e339 303c f88b 12bc f653 1e3d a08c afbd
00000080: 51ff 133d 6040 84bd 42c8 973d 9010 3d3c
00000090: 8d0c 433d 0f61 12bb 9015 3fbd 9e85 68bd
000000a0: e815 413c 8035 77bb 449d 96bd 75f6 8cbd
000000b0: 4b20 223d 9222 d93c 9a7d 503d 1c01 79bc
000000c0: 7fdb 643d 316a 6d3d 1ecf 043b 8b11 cb3c
000000d0: cbeb 0b3d e64e 1f3c 95cc b0bd df1d ad3c
000000e0: 9f92 1b3b baad 3e3d 1d24 d73b 888a 22bc
000000f0: abcc 21bd f780 c4bd 697e da3c d8fb 85bd
00000100: 386b 453d 42e2 bc3d 8ce9 b0bd bff4 3a3d
00000110: f14c a43d 8070 7dbd 73df c73d 0815 573d
00000120: b951 b7bc d6ae 8c3d a68b c83c 8afd a0bd
00000130: a51a 613b d102 2abd 738e 40bd eeed 9c3d
00000140: a4ae 203c 377e 243d 4a2a 75bc 9d85 05bd
00000150: b0e3 8e3c f606 543d d662 ab3b e076 88bd
00000160: 2ccb 153d f061 47bd 74af 95bc 4bae 1538
00000170: d4bd 44bd 3bb3 82bd 8fb8 0e3c 74e0 b23c
00000180: 09a7 4dbd 7d8a 153d 456b 40bd 84e4 ddbc
00000190: b6a0 5cbd e2e6 963c 89d1 a9bd d422 cb3c
000001a0: 35ed 41bd 1ec7 24bb 41be b1ba 13b0 953d
000001b0: 86b5 be3c 52ba 1fbd 7e09 81bd 8a07 8ebd
000001c0: 1bbe 5f3d 440b d13b 6cdd 61bd 92d0 a9bb
000001d0: 7885 a63b 5e6f c83d f0ac 5b3d 137d a43d
000001e0: 1d7c 14bd 15a4 9c3d 2265 143d 3ab0 44bd
000001f0: 3a95 453d ce6d 5f3d f641 0bbd 8485 863d

fc4.weight f4 [128, 128]
0.032097988 0.07411181 -0.06273756 0.06583349 0.014375978 0.016555883 -0.07112171 0.045198612
0.073289365 0.09832043 -0.061556343 -0.020314397 0.02244526 0.02952717 0.0036261608 -0.007393527
0.08667887 -0.062093053 -0.031143483 0.07782627 0.018167939 -0.06356798 0.021848775 -0.04041612
0.08152413 0.069851555 -0.08494271 0.07500653 -0.045674793 -0.053739365 0.07794391 -0.019651627
0.09802816 -0.072975226 0.020116769 -0.055685807 -0.018946456 0.08271106 0.06314932 0.0008566721
-0.06741227 0.034936395 0.06828652 0.05971123 0.08736529 0.08534828 -0.05799492 0.09554926
0.056060165 0.018953115 -0.06114868 0.06648772 -0.0018693942 0.045079604 -0.075651884 0.05622232
-0.08275825 0.028586794 -0.0064330315 -0.08060604 -0.094188035 -0.030030306 -0.06685626 0.04134384
-0.010271099 -0.009434422 0.076712616 -0.044014208 0.046750396 -0.06884259 -0.026144827 0.06819799
-0.07851392 -0.02324855 0.13291202 -0.013425099 0.036994122 0.07085809 0.035467807 -0.039702293
0.09134796 -0.04294883 -0.036489014 0.013268198 -0.06551772 0.06069631 -0.045955583 0.030703152
0.085651554 0.043345664 0.04179612 -0.042314384 0.071105786 0.069459155 -0.084509 -0.018707218
-0.03900929 -0.054704823 0.04399024 -0.012540772 -0.06920738 0.07939278 -0.08259063 0.0103855925
-0.029129218 -0.08427102 -0.07231766 -0.040730238 0.044536047 -0.08979346 -0.08456987 0.029531695
-0.044638142 0.09054154 0.0514551 -0.09253234 0.01819125 -0.05536039 -0.034074195 0.0020205306
-0.046557546 -0.059392955 -0.055362135 -0.04843675 -0.014558941 0.04570571 -0.017863639 0.09294372
0.018669948 0.0031787155 -0.09868466 -0.07671858 -0.020741357 0.09771154 -0.020369196 -0.052683987
-0.07037745 -0.06464719 -0.06702254 0.03307601 0.06995633 -0.076558724 -0.04276696 0.06423091
-0.03889698 0.027198393 0.07977502 0.003497996 -0.060804885 0.08746894 -0.08881743 -0.053526524
-0.040701933 0.019043509 0.09655572 0.022168975 0.019707862 0.11234441 -0.047245 -0.076382376
-0.028624574 0.04618249 0.038757864 0.029620472 0.06956415 0.0034993708 -0.06094777 0.030167295
-0.10999082 0.034056164 0.075077124 -0.029519679 0.080736734 0.0832761 0.042928245 -0.072254986
0.06565556 -0.005595673 0.0089573385 -0.0005655517 -0.008963086 0.056364648 0.019365845 0.025044516
-0.058272764 -0.09224205 -0.062135637 -0.009092096 -0.060146116 0.07277572 0.026535878 0.068402916
-0.055573035 -0.0124888765 -0.0027810005 0.028564326 -0.09688335 0.07908563 0.09002178 0.05187603
0.09941487 -0.02851084 -0.13139534 0.050831832 -0.017364895 0.07914522 -0.047381323 -0.066340715
0.0034800558 0.058481216 0.036865637 0.076182276 -0.03936633 0.024667695 -0.03718443 -0.045935784
0.07170622 -0.013413512 -0.07607955 0.01683513 0.08151236 -0.0007555216 -0.04523962 -0.04471692
0.073973976 -0.0804294 0.06225783 -0.017382598 0.067338474 -0.05158626 -0.02186887 -0.056961596
-0.000629147 0.013692417 0.104022585 -0.027917251 0.0970254 -0.00873475 0.08129233 0.0833883
0.049545705 -0.0030007951 0.011263043 0.041125137 -0.08658478 0.0014507929 0.025790744 -0.016297555
0.030907514 0.034010388 -0.009310091 0.037455842 0.01745075 -0.048828036 0.08318709 0.025055453
00000000: 2e79 033d efc7 973d 8d7c 80bd b5d3 863d
00000010: 3989 6b3c 34a0 873c 42a8 91bd 2e22 393d
00000020: bc18 963d 395c c93d 8122 7cbd 616a a6bc
00000030: 1fdf b73c f7e2 f13c e2a4 6d3b 6645 f2bb
00000040: b184 b13d 4955 7ebd 9e20 ffbc 6163 9f3d
00000050: eed4 943c ee2f 82bd 34fc b23c 608b 25bd
00000060: 20f6 a63d 550e 8f3d 72f6 adbd 069d 993d
00000070: 7e15 3bbd cf1d 5cbd 0fa1 9f3d 73fc a0bc
00000080: fdc2 c83d 0974 95bd eccb a43c cd16 64bd
00000090: 9935 9bbc 6b64 a93d 6e54 813d 4b92 603a
000000a0: 720f 8abd 7719 0f3d ced9 8b3d c393 743d
000000b0: 93ec b23d 14cb ae3d 158c 6dbd 55af c33d
000000c0: 589f 653d 9043 9b3c 0a77 7abd b72a 883d
000000d0: 7606 f5ba 64a5 383d 60ef 9abd 6049 663d
000000e0: 287d a9bd da2e ea3c 2ecc d2bb c814 a5bd
000000f0: a8e5 c0bd 1e02 f6bc efeb 88bd 2958 293d
00000100: 1d48 28bc d592 1abc 811b 9d3d 3e48 34bd
00000110: 587d 3f3d 58fd 8cbd ad2d d6bc 63ab 8b3d
00000120: e8cb a0bd be73 bebc 171a 083e f2f4 5bbc
00000130: 2687 173d 0c1e 913d b146 113d df9e 22bd
00000140: a414 bb3d 1deb 2fbd 8175 15bd db62 593c
00000150: 282e 86bd b29c 783d ec3b 3cbd 2d85 fb3c
00000160: 156a af3d 398b 313d 6932 2b3d d951 2dbd
00000170: e99f 913d 9a40 8e3d 0e13 adbd e13f 99bc
00000180: 35c8 1fbd 2a12 60bd 1c2f 343d cf77 4dbc
00000190: 99bc 8dbd af98 a23d 4725 a9bd 5528 2a3c
000001a0: 66a0 eebc 4996 acbd 481b 94bd c0d4 26bd
000001b0: 6e6b 363d a2e5 b7bd f832 adbd 74ec f13c
000001c0: 7cd6 36bd d86d b93d 95c2 523d 9881 bdbd
000001d0: d105 953c 94c1 62bd 6291 0bbd e16a 043b
000001e0: 20b3 3ebd 0746 73bd 68c3 62bd 9d65 46bd
000001f0: a088 6ebc e935 3b3d c456 92bc 4759 be3d
00000200: b8f1 983c ff51 503b 2f1b cabd a21e 9dbd
00000210: c7e9 a9bc fd1c c83d 4ddd a6bc 2acb 57bd
00000220: 0d22 90bd bf65 84bd 1d43 89bd b67a 073d
00000230: 4445 8f3d d2ca 9cbd 682c 2fbd 7f8b 833d
00000240: 7152 1fbd 2acf de3c 1661 a33d a23e 653b
00000250: 8b0e 79bd ea22 b33d eae5 b5bd a13e 5bbd
00000260: 12b7 26bd 2201 9c3c 01bf c53d b69b b53c
00000270: 6272 a13c d314 e63d f983 41bd 5d6e 9cbd
00000280: 157e eabc da29 3d3d 91c0 1e3d a2a6 f23c
00000290: a677 8e3d b355 653b 5ea4 79bd 6721 f73c
000002a0: de42 e1bd 7a7e 0b3d 09c2 993d 41d3 f1bc
000002b0: 4d59 a53d a98c aa3d 87d5 2f3d 6cfa 93bd
000002c0: 6c76 863d e85b b7bb cdc1 123c 8841 14ba
000002d0: e8d9 12bc 9ede 663d 1fa5 9e3c 282a cd3c
000002e0: 6caf 6ebd 66e9 bcbd f081 7ebd 04f7 14bc
000002f0: c65b 76bd 700b 953d c561 d93c d416 8c3d
00000300: 8da0 63bd 259e 4cbc 7241 36bb bcff e93c
00000310: c76a c6bd a6f7 a13d 575d b83d f67b 543d
00000320: 069a cb3d 918f e9bc 808c 06be 0a35 503d
00000330: d340 8ebc e416 a23d eb12 42bd a4dd 87bd
00000340: a611 643b 008a 6f3d 6c00 173d 7405 9c3d
00000350: 973e 21bd e813 ca3c b34e 18bd 2927 3cbd
00000360: b6da 923d 59c4 5bbc 98cf 9bbd d4e9 893c
00000370: f4ef a63d 320e 46ba 2e4d 39bd 1729 37bd
00000380: ab7f 973d 2bb8 a4bd 1102 7f3d f365 8ebc
00000390: c1e8 893d 1d4c 53bd 5826 b3bc 9050 69bd
000003a0: 57ed 24ba 2956 603c cb09 d53d b8b2 e4bc
000003b0: 41b5 c63d 321c 0fbc 987c a63d 7cc7 aa3d
000003c0: 70f0 4a3d fda8 44bb a088 383c d572 283d
000003d0: 5c53 b1bd 8828 be3a 1c47 d33c 7382 85bc
000003e0: c131 fd3c 7a4e 0b3d 5a89 18bc 4c6b 193d
000003f0: e0f4 8e3c e8ff 47bd fe5d aa3d 1841 cd3c

fc4.bias f4 [128]
-0.06290848 0.0052559506 0.082073376 0.012849842 0.03928235 0.08096833 0.015003594 -0.008640786
-0.08668167 -0.052455917 0.072788 -0.0053149126 -0.08600615 -0.024212988 -0.07504313 0.01520822
0.032802705 -0.049164236 0.05647014 -0.04625707 -0.07826337 0.06305906 0.08497983 -0.02631928
0.08949747 -0.011298977 -0.040108986 -0.049455028 -0.05049466 -0.029025104 0.071445584 -0.09426298
0.037965216 0.032665893 -0.08457765 -0.017241301 -0.051424168 0.023490835 0.045629766 -0.04440977
-0.0407123 0.048421253 -0.021418884 -0.040840253 -0.05601305 0.049142968 -0.074667364 -0.030331606
0.035361193 0.076149054 -0.06694156 0.046270605 0.027567776 -0.012484185 0.000353646 -0.06185247
0.07206675 -0.025869483 0.08621968 -0.009117024 -0.05004512 -0.008865924 0.026033195 0.07140364
0.013633007 -0.08019913 0.017331935 -0.021751234 0.059394076 0.0560533 0.054677628 0.017648734
0.07051864 0.023458198 -0.030688401 -0.040922925 0.04059712 -0.053090323 -0.0017004267 0.060647387
-0.021409962 -0.07901625 -0.03242732 -0.07606793 7.22885e-05 0.033764545 -0.0031992062 0.028272837
0.07383538 0.06750028 -0.063208416 -0.07389799 0.03902185 -0.07119201 -0.06432693 -0.061218616
-0.020669531 -0.06730072 -0.063278 -0.09085025 0.04475077 0.006014017 0.060995918 -0.07775555
0.0828635 -0.0018758643 -0.030170878 -0.08580474 -0.067939326 0.11189894 0.003061906 -0.014256722
0.090564966 -0.08187571 -0.06800997 -0.061242282 0.0036905333 -0.029363062 -0.0024026774 0.03565107
0.086301826 -0.0068819923 -0.060610462 0.07347678 -0.0129143065 0.04130677 0.05342363 -0.0039725
00000000: 29d6 80bd 1c3a ac3b 1616 a83d 2588 523c
00000010: 88e6 203d b9d2 a53d a2d1 753c 1592 0dbc
00000020: 2986 b1bd 04dc 56bd e011 953d b828 aebb
00000030: fe23 b0bd 515a c6bc 36b0 99bd e62b 793c
00000040: 215c 063d 7060 49bd 3c4d 673d 0e78 3dbd
00000050: 8c48 a0bd 1c25 813d e809 ae3d 889b d7bc
00000060: 734a b73d 581f 39bc 5249 24bd 5b91 4abd
00000070: 7dd3 4ebd 0ec6 edbc 1052 923d f30c c1bd
00000080: 6a81 1b3d accc 053d 0c37 adbd a13d 8dbc
00000090: 26a2 52bd da6f c03c 47e6 3a3d 05e7 35bd
000000a0: f1c1 26bd 5d55 463d a876 afbc 1c48 27bd
000000b0: f16d 65bd 234a 493d 34eb 98bd fd79 f8bc
000000c0: e6d6 103d 09f4 9b3d a818 89bd 3f86 3d3d
000000d0: d1d5 e13c 788a 4cbc 9069 b939 0459 7dbd
000000e0: bb97 933d 3dec d3bc f293 b03d 925f 15bc
000000f0: 1dfc 4cbd 6142 11bc 9143 d53c 123c 923d
00000100: fa5c 5f3c 713f a4bd b4fb 8d3c a52f b2bc
00000110: 3447 733d 2598 653d a6f5 5f3d 1494 903c
00000120: 146c 903d 682b c03c 3e66 fbbc cc9e 27bd
00000130: 2a49 263d 3d75 59bd dae0 deba 6569 783d
00000140: f263 afbc 46d3 a1bd 82d2 04bd 81c9 9bbd
00000150: 9899 9738 b14c 0a3d c6a9 51bb 709c e73c
00000160: 0137 973d 963d 8a3d 6a73 81bd d457 97bd
00000170: 60d5 1f3d 1ecd 91bd d6bd 83bd 5fc0 7abd
00000180: 2653 a9bc f6d4 89bd e597 81bd b20f babd
00000190: 954c 373d 3b11 c53b dbd6 793d 4d3e 9fbd
000001a0: 57b4 a93d 90df f5ba eb28 f7bc 65ba afbd
000001b0: c623 8bbd 452b e53d 42aa 483b 0795 69bc
000001c0: 207a b93d 74ae a7bd d048 8bbd 30d9 7abd
000001d0: e0dc 713b ce8a f0bc 3d76 1dbb db06 123d
000001e0: 03bf b03d 5682 e1bb ad42 78bd fe7a 963d
000001f0: 8796 53bc 4a31 293d bcd2 5a3d bf2b 82bb

fc5.weight f4 [1, 128]
0.11278391 -0.09175154 -0.056679145 -0.036408275 0.026075713 -0.08321604 -0.013938026 -0.061416242
0.034035016 -0.00032368506 0.042772084 -0.0003438926 0.044692665 0.060320426 -0.08322243 0.028076975
0.10256188 -0.06482579 -0.10083047 -0.058379993 0.017481182 -0.1415266 -0.09494138 0.091890745
0.08002457 -0.04652918 0.055153403 0.111396894 0.079838954 -0.04903547 -0.10020557 0.0864031
-0.105744325 0.0978632 0.0093667125 0.03398413 -0.07380647 -0.07404682 -0.054274734 0.05069189
0.051463567 -0.015553377 0.098763585 -0.04935035 0.025498463 -0.074929 0.030839551 0.01282676
0.054824628 -0.07603031 -0.039976366 0.037070684 0.021795267 0.08934932 0.08119106 0.06415367
-0.06933066 -0.042902574 0.05528299 -0.059177354 -0.031332213 -0.10640624 -0.06739578 -0.08366323
-0.05560875 -0.088650644 -0.06296158 0.07952236 -0.08616764 -0.019261701 -0.020973666 0.025132628
0.05127667 0.057725295 -0.041916758 -0.08715037 0.06527021 0.07399041 -0.03463172 -0.0031009389
-0.061441645 -0.05634345 -0.031262904 -0.04851023 0.1040031 -0.055139545 -0.045162942 -0.06766115
-0.056771763 0.02486212 0.020330504 -0.055735692 -0.10193397 0.026213419 0.07046429 0.090476684
0.051668234 -0.058085922 -0.00017118067 -0.082909785 -0.02860586 -0.0719313 -0.085903265 0.10037707
-0.1002318 -0.08054367 -0.08576696 -0.02485916 0.0003168438 -0.07651002 0.07666527 0.08780056
0.050072387 -0.097256236 -0.017614285 -0.048823558 -0.08485863 0.008165064 -0.056290086 0.09526976
0.03907601 0.0746823 0.051707007 -0.06127363 -0.04281807 0.013638428 0.044309303 -0.046761606
00000000: 40fb e63d 3be8 bbbd 6428 68bd d820 15bd
00000010: bc9c d53c 2c6d aabd 515c 64bc 998f 7bbd
00000020: 4d68 0b3d 46b4 a9b9 c831 2f3d 7c4c b4b9
00000030: a80f 373d 8d12 773d 8570 aabd af01 e63c
00000040: f70b d23d 62c3 84bd 3580 cebd dc1f 6fbd
00000050: b234 8f3c 59ec 10be a070 c2bd 3731 bc3d
00000060: ece3 a33d 6295 3ebd 89e8 613d 0e24 e43d
00000070: 9b82 a33d 6bd9 48bd 9438 cdbd 1cf4 b03d
00000080: 7b90 d8bd 806c c83d d776 193c f132 0b3d
00000090: d927 97bd dca5 97bd 2f4f 5ebd 4da2 4f3d
000000a0: 76cb 523d 97d3 7ebc 9044 ca3d 9823 4abd
000000b0: 27e2 d03c 6074 99bd 3aa3 fc3c 5527 523c
000000c0: ca8f 603d c7b5 9bbd 42be 23bd 6ed7 173d
000000d0: fd8b b23c c7fc b63d 8047 a63d 0063 833d
000000e0: 3cfd 8dbd 9cba 2fbd 6b70 623d f463 72bd
000000f0: 3556 00bd 84eb d9bd cc06 8abd a157 abbd
00000100: 00c6 63bd 788e b5bd 00f2 80bd 9edc a23d
00000110: a978 b0bd b7ca 9dbc f7d0 abbc f1e2 cd3c
00000120: 7c07 523d 5c71 6c3d e8b0 2bbd e57b b2bd
00000130: 63ac 853d 4988 973d fed9 0dbd 1f39 4bbb
00000140: 3caa 7bbd 64c8 66bd 880d 00bd aab2 46bd
00000150: 94ff d43d 01da 61bd c7fc 38bd ee91 8abd
00000160: 8289 68bd a5ab cb3c 288c a63c 1c4b 64bd
00000170: c2c2 d0bd 86bd d63c 954f 903d d74b b93d
00000180: 12a2 533d 81eb 6dbd f67e 33b9 9bcc a9bd
00000190: d656 eabc b850 93bd 0dee afbd 7e92 cd3d
000001a0: 5446 cdbd 14f4 a4bd 97a6 afbd 70a5 cbbc
000001b0: 0e1e a639 49b1 9cbd ae02 9d3d c8d0 b33d
000001c0: b418 4d3d 472e c7bd d54b 90bc 36fb 47bd
000001d0: 5dca adbd c3c6 053c 6f90 66bd cb1c c33d
000001e0: 2b0e 203d 09f3 983d baca 533d 0ffa 7abd
000001f0: 0062 2fbd b773 5f3c ac7d 353d 1989 3fbd
